tmp/policy.pth (torch, 9623 bytes, 6 tensors)

model.0.weight f4 [50, 15]
0.10939674 0.0069190813 0.12604792 -0.072603 -0.09755558 -0.13496855 0.20692937 0.24038003
-0.19698516 -0.06467943 -0.0017046509 -0.23526366 0.12075743 -0.21463114 0.15427908 -0.18341295
-0.1697968 0.16859633 -0.1339253 -0.1685564 0.1313519 -0.0978148 -0.20745 0.13974737
0.016800633 0.21051349 -0.21754204 0.011604574 0.19265406 -0.19299704 -0.17553093 0.24410892
0.08221116 0.10841642 -0.25624466 0.15297273 -0.07984769 0.13921693 0.0701651 -0.098247744
-0.00750907 -0.17927784 -0.13351972 -0.21103545 0.06417533 -0.14845729 -0.2374092 -0.16515076
0.17677729 0.16345748 0.18002172 0.14573747 -0.20613533 0.01757003 0.22622396 -0.18078919
-0.006594841 -0.14261878 -0.120161474 0.11214182 -0.015010264 -0.10817191 -0.011827331 0.12295801
0.0037765433 -0.13303621 -0.2020838 -0.11189365 -0.07525439 -0.20225553 0.13279264 0.18308988
-0.13674678 -0.1387072 0.038947627 -0.2622743 0.014709301 -0.019569 0.014159329 -0.006415162
-0.1487332 -0.15130472 0.20092209 -0.10862992 -0.024183687 -0.21877772 0.09021316 -0.1788406
-0.12633978 -0.06691904 0.013632916 0.16947103 -0.012797683 -0.031207085 0.062042113 -0.07677703
0.02405386 -0.120089926 -0.048819855 0.15768221 -0.13104263 -0.12777306 0.082200706 0.06480172
0.06913489 -0.13628104 -0.21383765 -0.061689515 -0.05163862 -0.04551461 0.16197978 0.010012928
0.11667347 -0.12945034 0.15158334 0.006142995 0.18356794 0.16194427 -0.12806925 0.17139688
0.25250983 -0.086017326 -0.26238397 0.06680213 -0.16958758 -0.17366785 0.13801073 0.04357722
-0.23917064 -0.08247593 -0.13025452 -0.037233457 0.16803405 0.118138514 -0.08136809 -0.04984165
0.25906605 -0.16421358 -0.23122782 -0.11066769 -0.17664681 0.16889068 -0.1930389 -0.14384349
0.22145347 -0.08184237 0.23713307 -0.17605025 0.07008561 -0.05875597 0.1050772 0.1431736
-0.10604733 -0.24008648 -0.20802344 0.17481615 0.017407443 0.2547804 0.11260755 0.048252843
-0.11115855 -0.022547398 0.09545991 -0.05609848 0.19555426 0.054553125 -0.16723295 -0.19145508
-0.14157724 0.024727399 0.042440753 0.08455943 -0.07675567 -0.21565937 0.1129431 -0.073482156
-0.099951535 0.14151688 0.15744539 0.19239254 -0.12643284 0.06057995 0.23607504 -0.25503385
0.16057387 -0.2006507 0.0049894303 0.24860644 0.04760098 0.007327997 0.15223952 -0.23979145
-0.15787515 -0.054835375 -0.24554603 0.088392496 -0.17257097 -0.11375112 -0.11951536 -0.23762916
0.07308484 -0.1367562 -0.06466149 -0.17991471 0.090846606 -0.13147649 -0.23547237 -0.061273612
-0.26872936 0.19343689 0.0047873515 0.013534747 0.10271615 0.053407602 0.008619542 -0.12220956
0.2556101 0.11365719 0.20457177 0.2593351 0.22877799 -0.22194965 -0.062094066 -0.24353285
-0.113586664 -0.021515079 0.14667062 0.13515744 0.09785852 0.08221872 0.05860766 -0.15867254
0.19324994 -0.051951338 -0.15640324 -0.1194456 -0.24457431 0.21151501 -0.18493503 -0.014995441
-0.055889957 0.08421628 -0.019741636 -0.20296346 -0.037490815 0.04673525 -0.185677 -0.21874489
0.20745097 0.04011389 -0.07036187 -0.117504634 0.24497935 -0.021708693 0.2558902 0.111654885
00000000: 660b e03d 76b9 e23b b512 013e e2b0 94bd
00000010: 38cb c7bd 3235 0abe 4be5 533e 2f26 763e
00000020: 7ab6 49be a676 84bd 986e dfba f5e8 70be
00000030: ac4f f73d 44c8 5bbe 56fb 1d3e 9bd0 3bbe
00000040: 36df 2dbe 84a4 2c3e b723 09be 0d9a 2cbe
00000050: 1d81 063e 2053 c8bd c66d 54be ef19 0f3e
00000060: 7ba1 893c d990 573e 57c3 5ebe 1c21 3e3c
00000070: 1b47 453e 04a1 45be 61be 33be b0f7 793e
00000080: 535e a83d 6e09 de3d 8032 83be e2a4 1c3e
00000090: 3087 a3bd e28e 0e3e b8b2 8f3d 1d36 c9bd
000000a0: a50e f6bb 9c94 37be 65b9 08be ad19 58be
000000b0: 5b6e 833d 3005 18be 661b 73be 481d 29be
000000c0: 1b05 353e 6661 273e 9d57 383e 343c 153e
000000d0: 2415 53be 06ef 8f3c 41a7 673e cd20 39be
000000e0: 8919 d8bb a80a 12be 3817 f6bd 9caa e53d
000000f0: 9ced 75bc 3c89 ddbd 6cc7 41bc 69d1 fb3d
00000100: e27f 773b a53a 08be 0eef 4ebe 7f28 e5bd
00000110: f91e 9abd 131c 4fbe cbfa 073e ea7b 3b3e
00000120: 5907 0cbe 4309 0ebe 8c87 1f3d d148 86be
00000130: 48ff 703c 2b4f a0bc 88fc 673c 4736 d2bb
00000140: 844d 18be a0ef 1abe 85be 4d3e 5d79 debd
00000150: de1c c6bc 4407 60be adc1 b83d fe21 37be
00000160: 375f 01be da0c 89bd 985c 5f3c d089 2d3e
00000170: 5fad 51bc 00a6 ffbc df1f 7e3d 473d 9dbd
00000180: 9a0c c53c b5f1 f5bd 54f7 47bd 7277 213e
00000190: 0a30 06be f1d6 02be d858 a83d c4b6 843d
000001a0: 9896 8d3d 428d 0bbe 42f8 5abe 25ae 7cbd
000001b0: 0583 53bd 876d 3abd 07de 253e 440d 243c
000001c0: 80f2 ee3d a18e 04be aa38 1b3e 2d4b c93b
000001d0: 3cf9 3b3e b8d4 253e 9624 03be aa82 2f3e
000001e0: f848 813e da29 b0bd 3157 86be 8ecf 883d
000001f0: 5ea8 2dbe fcd5 31be af52 0d3e 077e 323d
00000200: 26e9 74be 24e9 a8bd 7161 05be 1c82 18bd
00000210: 1e11 2c3e 9bf2 f13d 50a4 a6bd c226 4cbd
00000220: 4ea4 843e 9b27 28be fcc6 6cbe bea5 e2bd
00000230: e7e2 34be aef1 2c3e fdab 45be b54b 13be
00000240: b3c4 623e f99c a7bd 03d3 723e 8446 34be
00000250: 0b89 8f3d 1aaa 70bd b732 d73d 1a9c 123e
00000260: 582f d9bd 3bd9 75be 1904 55be 0103 333e
00000270: 0e9a 8e3c 9472 823e ca9e e63d c6a4 453d
00000280: 18a7 e3bd 52b5 b8bc 7c80 c33d 85c7 65bd
00000290: 603f 483e 1973 5f3d 1d3f 2bbe cd0c 44be
000002a0: a0f9 10be 1d91 ca3c 5bd6 2d3d 7f2d ad3d
000002b0: 1432 9dbd cfd5 5cbe b64e e73d d07d 96bd
000002c0: 64b3 ccbd cde9 103e 5d39 213e 8d02 453e
000002d0: 9c77 01be af22 783d a8bd 713e cc93 82be
000002e0: 7a6d 243e 6177 4dbe 607e a33b b092 7e3e
000002f0: 3ff9 423d b21f f03b ade4 1b3e e48b 75be
00000300: 06aa 21be 0f9b 60bd 6b70 7bbe 2007 b53d
00000310: 72b6 30be 59f6 e8bd 78c4 f4bd 0f55 73be
00000320: 81ad 953d d109 0cbe 3e6d 84bd 903b 38be
00000330: c90d ba3d c6a1 06be ab1f 71be 0afa 7abd
00000340: e596 89be 5214 463e 37df 9c3b d8c0 5d3c
00000350: d85c d23d eec1 5a3d fb38 0d3c 0149 fabd
00000360: 54df 823e 1ac5 e83d 437b 513e 92c7 843e
00000370: c744 6a3e c546 63be 5956 7ebd ad60 79be
00000380: 20a0 e8bd 6440 b0bc d330 163e b666 0a3e
00000390: 0c6a c83d 4a62 a83d 960e 703d 0e7b 22be
000003a0: 50e3 453e edca 54bd 2c28 20be e59f f4bd
000003b0: b071 7abe 6497 583e 9c5f 3dbe 70af 75bc
000003c0: deec 64bd 9679 ac3d 36b9 a1bc a7d5 4fbe
000003d0: f88f 19bd 766d 3f3d 1d22 3ebe a9fe 5fbe
000003e0: 076e 543e 764e 243d e219 90bd 45a6 f0bd
000003f0: dedb 7a3e 6ed6 b1bc 0a04 833e 51ab e43d

model.0.bias f4 [50]
-0.16389754 0.16120106 0.12792784 -0.15778542 -0.21174636 -0.008710027 0.2372107 -0.12475768
-0.21866286 -0.20984636 0.20104411 0.09410323 0.15577151 -0.09915088 0.19220275 0.023513276
-0.17128435 -0.249306 -0.14047952 -0.21273245 0.012431204 0.26414022 -0.1928783 -0.1814969
-0.016842365 -0.0858614 0.0015740939 -0.13645211 0.08311087 -0.22841902 0.045273013 -0.11083002
0.25975958 0.21390706 -0.03737465 -0.19884862 0.09053056 -0.16930465 -0.18572937 -0.053073727
0.14203927 0.16017234 0.25439122 -0.13552436 0.003350005 0.06227285 -0.07190579 -0.23367622
0.2235386 -0.12269252
00000000: c2d4 27be e411 253e 84ff 023e 8092 21be
00000010: 0ad4 58be 80b4 0ebc 5de7 723e f480 ffbd
00000020: 28e9 5fbe f7e1 56be 82de 4d3e 32b9 c03d
00000030: 9182 1f3e 9e0f cbbd ccd0 443e ea9e c03c
00000040: 2a65 2fbe 124a 7fbe ddd9 0fbe 89d6 59be
00000050: 40ac 4b3c 633d 873e e481 45be 53da 39be
00000060: 00f9 89bc 1ad8 afbd d451 ce3a 1aba 0bbe
00000070: 0836 aa3d ade6 69be 3270 393d d9fa e2bd
00000080: 35ff 843e 740a 5b3e 2916 19bd f99e 4bbe
00000090: 1668 b93d 335e 2dbe d72f 3ebe d663 59bd
000000a0: be72 113e 3804 243e 913f 823e e6c6 0abe
000000b0: c28b 5b3b d111 7f3d 5843 93bd d248 6fbe
000000c0: 4ee7 643e 3746 fbbd

model.2.weight f4 [20, 50]
-0.03679399 -0.019290324 -0.13059182 0.009075769 0.11011056 -0.00017409027 -0.0031255768 -0.0744275
0.13309127 -0.040005602 -0.060196314 0.07967394 -0.021009268 0.012800182 -0.13094683 -0.046431065
0.0037690308 -0.14442956 0.029047074 -0.12532046 0.029711097 0.03213769 -0.101148844 -0.14460237
-0.044100344 -0.062025685 0.034670115 -0.0050123697 -0.1236486 -0.061844684 -0.122282505 -0.14784779
-0.10243986 -0.069168575 0.051430605 0.05890947 -0.037661288 0.0681459 -0.12611024 -0.013440095
-0.088545784 0.0009616893 -0.11702104 -0.066250905 0.09773751 0.03471729 -0.12379117 0.14045438
-0.1257045 -0.0088136885 0.11668943 -0.068001285 0.15297176 0.10510544 -0.08457123 0.10583569
0.112785004 -0.083381355 0.11888357 0.049507596 -0.038156528 -0.051611606 -0.02934175 -0.034014
0.020853296 0.027091809 0.019665185 -0.09670062 -0.10546044 -0.044638894 -0.0027773336 0.112612136
-0.04143605 0.031601727 -0.008006755 -0.011719859 0.0662626 0.028902583 0.057685606 0.08168811
-0.0009466368 0.072759226 0.14138131 0.12429224 0.12704517 0.12712379 0.02582385 -0.11429185
-0.022476535 -0.026162578 -0.08405118 -0.09613942 0.07074761 -0.05808436 -0.12568526 -0.05518412
0.039427992 -0.12206723 0.030916784 -0.09353128 0.040267088 0.0047226297 -0.0058219503 -0.044718944
0.06718204 -0.0267449 0.092467085 0.023132075 0.018180462 -0.14310566 0.08414655 -0.0075260117
0.05524822 -0.02085783 0.032981224 0.052617453 -0.02146982 0.0015370357 -0.08675337 -0.022008874
0.005278384 -0.04714346 -0.07854803 0.12581132 0.031668924 0.048041966 0.11570219 0.015816465
0.032937318 -0.10269941 0.06776114 -0.11060133 0.05120754 0.104568996 0.005365338 -0.07952365
-0.012759285 0.104242936 -0.108884305 -0.1038225 0.050460346 0.14696226 0.022600435 -0.09414842
0.0047846637 0.029394958 0.12231651 0.00093530817 0.1266021 -0.084700026 0.04470548 0.10941244
-0.09756544 -0.069492675 0.03860991 -0.06103943 -0.0076671634 0.031480018 0.10780771 -0.023334261
0.11386442 0.056315392 0.1305955 -0.12547743 0.018975813 -0.028964223 -0.06742398 0.026632398
-0.088749975 0.08354011 -0.05926694 -0.020701844 -0.005105011 0.089246824 -0.060497027 -0.065599106
0.016008703 0.04485677 0.103046186 0.094727546 0.1260371 0.05567449 -0.096300654 -0.08186721
-0.013327176 -0.08718753 -0.12675323 -0.039689776 -0.08536737 -0.004686426 -0.059226487 -0.07495201
-0.025017023 0.02933408 -0.13218388 0.07043162 0.005382218 0.12154536 0.1407646 -0.07647894
0.0856111 0.13480741 -0.062334824 0.07056169 0.12555653 0.11938534 0.049374435 -0.07966914
0.13653338 0.11186498 0.047616675 0.08246657 0.044839803 0.15433021 0.08093476 0.036297508
0.069916785 -0.065623224 -0.11838404 0.03984519 -0.005445473 0.12691765 -0.013932068 -0.11635139
0.07943503 0.0980136 -0.064939745 0.14902578 -0.06616972 0.05789187 -0.06624158 0.097078994
0.10016728 0.021594271 -0.0010850197 -0.11475447 -0.055481188 -0.0083853835 -0.052554708 0.013809664
0.037114423 -0.1238146 -0.045404125 0.01348596 -0.09599494 -0.021861576 0.017367477 -0.036301237
0.15387395 0.10398387 0.051010795 0.009089429 0.027449608 0.118186936 0.050411973 0.10971728
00000000: 4bb5 16bd be06 9ebc ddb9 05be 89b2 143c
00000010: a581 e13d 008c 36b9 7ad6 4cbb 726d 98bd
00000020: 1449 083e eadc 23bd 6990 76bd 172c a33d
00000030: a11b acbc dbb7 513c ed16 06be 802e 3ebd
00000040: d801 773b 58e5 13be 21f4 ed3c 0254 00be
00000050: b064 f33c cfa2 033d 2027 cfbd a512 14be
00000060: 90a2 34bd a50e 7ebd 4002 0e3d ce3e a4bb
00000070: 7a3b fdbd da50 7dbd 406f fabd 6965 17be
00000080: fdcb d1bd 41a8 8dbd e6a8 523d 0e4b 713d
00000090: b942 1abd 1490 8b3d 0b23 01be d833 5cbc
000000a0: 7e57 b5bd e019 7c3a baa8 efbd 8eae 87bd
000000b0: 9b2a c83d b833 0e3d 3a86 fdbd 46d3 0f3e
000000c0: aeb8 00be 4a67 10bc defa ee3d 4244 8bbd
000000d0: a1a4 1c3e 8541 d73d ae33 adbd 62c0 d83d
000000e0: d3fb e63d d8c3 aabd 3b79 f33d 7ac8 4a3d
000000f0: 054a 1cbd b166 53bd 1c5e f0bc 4452 0bbd
00000100: 88d4 aa3c a4ef dd3c e218 a13c fa0a c6bd
00000110: a5fb d7bd 46d7 36bd ed03 36bb 31a1 e63d
00000120: d9b8 29bd d070 013d c42e 03bc a704 40bc
00000130: b0b4 873d 1cc5 ec3c be47 6c3d 194c a73d
00000140: b827 78ba ca02 953d 43c6 103e ee8c fe3d
00000150: 2118 023e bd2c 023e 8a8c d33c d811 eabd
00000160: b620 b8bc e752 d6bc 0623 acbd bfe4 c4bd
00000170: 1fe4 903d dee9 6dbd a3b3 00be be08 62bd
00000180: 3f7f 213d 62fe f9bd 3245 fd3c 548d bfbd
00000190: 1aef 243d 4ac0 9a3b 0fc6 bebb 362b 37bd
000001a0: bd96 893d 1f18 dbbc 625f bd3d 7a7f bd3c
000001b0: 31ef 943c 4a8a 12be 0755 ac3d c39c f6bb
000001c0: f54b 623d 0ade aabc 5217 073d 6685 573d
000001d0: 7ae1 afbc 5c76 c93a c0ab b1bd f44b b4bc
000001e0: 4bf6 ac3b 8019 41bd cadd a0bd afd4 003e
000001f0: 46b7 013d a7c7 443d 45f5 ec3d 8891 813c
00000200: 48e9 063d 1154 d2bd 5ac6 8a3d f382 e2bd
00000210: ffbe 513d 4528 d63d b8cf af3b 4cdd a2bd
00000220: 520c 51bc 527d d53d bcfe debd e4a0 d4bd
00000230: 82af 4e3d 467d 163e 8c24 b93c e3d0 c0bd
00000240: abc8 9c3b b2cd f03c 1481 fa3d 782f 753a
00000250: fba3 013e 3577 adbd 181d 373d a113 e03d
00000260: 64d0 c7bd 2d52 8ebd 6d25 1e3d 7b04 7abd
00000270: d43c fbbb 31f1 003d 4aca dc3d 7e27 bfbc
00000280: c031 e93d f8aa 663d d4ba 053e 287d 00be
00000290: 2a73 9b3c 6146 edbc 9515 8abd 302c da3c
000002a0: 8cc2 b5bd 1417 ab3d e4c1 72bd ea96 a9bc
000002b0: f047 a7bb 0ac7 b63d bbcb 77bd d358 86bd
000002c0: af24 833c bcbb 373d e109 d33d 8400 c23d
000002d0: df0f 013e ef0a 643d 4739 c5bd ffa9 a7bd
000002e0: 3a5a 5abc 608f b2bd 99cb 01be bf91 22bd
000002f0: 16d5 aebd 9790 99bb 7997 72bd 7080 99bd
00000300: 80f0 ccbc 064e f03c 365b 07be 743e 903d
00000310: 515d b03b c6ec f83d 9824 103e fea0 9cbd
00000320: df54 af3d f40a 0a3e cd52 7fbd a682 903d
00000330: e491 003e 4d80 f43d d93c 4a3d 9329 a3bd
00000340: 68cf 0b3e 7719 e53d b409 433d 3ce4 a83d
00000350: f1a9 373d bd08 1e3e 20c1 a53d b2ac 143d
00000360: 8830 8f3d 7865 86bd 5573 f2bd b634 233d
00000370: f06f b2bb b3f6 013e 5443 64bc a349 eebd
00000380: d5ae a23d 5bbb c83d 21ff 84bd 379a 183e
00000390: fd83 87bd 0720 6d3d aaa9 87bd 5ad1 c63d
000003a0: 8124 cd3d 78e6 b03c 3837 8eba 6404 ebbd
000003b0: 3e40 63bd d962 09bc 9b43 57bd ee41 623c
000003c0: 4b05 183d 8292 fdbd adf9 39bd 37f4 5c3c
000003d0: ff98 c4bd 0c17 b3bc 3d46 8e3c 9bb0 14bd
000003e0: 2291 1d3e 7ff5 d43d b2f0 503d d4eb 143c
000003f0: 00de e03c fe0b f23d c97c 4e3d 74b3 e03d

model.2.bias f4 [20]
0.08493004 -0.039503966 -0.10500435 0.049486212 -0.017932815 0.07673429 -0.033129517 0.13912612
-0.12012928 0.039379478 -0.10231431 -0.027350664 0.021052264 0.063364096 0.115650125 -0.11541323
0.05413323 0.010180926 -0.00347284 0.042559765
00000000: cdef ad3d e9ce 21bd 850c d7bd 0eb2 4a3d
00000010: d7e7 92bc de26 9d3d d1b2 07bd 1477 0e3e
00000020: 5706 f6bd 604c 213d 2a8a d1bd 800e e0bc
00000030: cc75 ac3c 09c5 813d f9d9 ec3d c65d ecbd
00000040: ceba 5d3d e6cd 263c 9698 63bb 2653 2e3d

model.4.weight f4 [3, 20]
-0.20426941 0.18722264 -0.1771979 0.14898847 0.12639569 0.20795965 -0.13251333 -0.15546969
0.16647953 -0.14007246 0.018921258 0.1436668 0.06794667 -0.051146563 0.050901774 -0.015251026
0.14163376 0.17051241 0.1980034 0.14705482 -0.16185859 -0.09768949 -0.018860312 -0.059263352
-0.18362884 0.21627654 -0.1230693 0.08045155 -0.19915143 -0.16763462 0.19092597 0.0066930344
-0.2062652 0.16632506 0.16774353 4.6029687e-05 -0.09613105 0.105525605 0.21325593 -0.08827929
-0.06759087 -0.073280744 -0.11731793 -0.01000252 -0.2038365 0.16768962 0.19800167 0.097220235
0.066399224 -0.14690597 -0.09093691 -0.18779579 0.0003131735 -0.075280726 -0.05380612 0.18056527
0.06811859 0.10388958 -0.033538945 -0.14353456
00000000: 002c 51be 4bb7 3f3e 5e73 35be 6f90 183e
00000010: df6d 013e 60f3 543e 93b1 07be 7233 1fbe
00000020: 9c79 2a3e 286f 0fbe c100 9b3c 641d 133e
00000030: a027 8b3d 0f7f 51bd 617e 503d 70df 79bc
00000040: 7108 113e ce9a 2e3e 67c1 4a3e 8a95 163e
00000050: 42be 25be 6d11 c8bd f180 9abc 21be 72bd
00000060: 3309 3cbe 9977 5d3e c20b fcbd c8c3 a43d
00000070: 5aee 4bbe 69a8 2bbe 1982 433e 3e51 db3b
00000080: 2f37 53be 1e51 2a3e f6c4 2b3e 0010 4138
00000090: 5be0 c4bd cf1d d83d c35f 5a3e c6cb b4bd
000000a0: 156d 8abd 3714 96bd 6244 f0bd 9ce1 23bc
000000b0: 84ba 50be d4b6 2b3e f3c0 4a3e 671b c73d
000000c0: 51fc 873d 856e 16be 213d babd 8a4d 40be
000000d0: 7031 a439 c82c 9abd ce63 5cbd 1ae6 383e
000000e0: c281 8b3d 0fc4 d43d 2260 09bd b9fa 12be

model.4.bias f4 [3]
-0.08738955 0.004697624 -0.018262371
00000000: 4bf9 b2bd 87ee 993b f89a 95bc
